model_state_dict.pth (torch, 64480 bytes, 49 tensors)

Patch_embed.pos_embed f4 [1, 50, 8]
00000000: 5807 92bf 01e4 1740 2f88 ce3c c6e3 bd3e
00000010: f844 1ac0 7c18 853e 1028 02bf 95c3 bb3f
00000020: 8f5f cebd c07d 8b40 28af b7bf 1afe a3bf
00000030: fbbe 9dbe 6b54 57bf 90a4 3b40 3e9b 85bf
00000040: c3e6 88bf a92a be3f 74e9 52c0 3a6b fe3e
00000050: ee49 1840 7384 4bc0 6199 2340 e9a0 7e3f
00000060: 2964 de3e d57c d33f c86c 62c0 ebde 7fbe
00000070: 0e55 0540 17ca 26c0 135f 463f 2c30 1040
00000080: a315 6b3f a0ad 9a3f 292c 7dc0 5c26 43bf
00000090: a81c 0140 2c99 c9bf 6978 443e 28fd 1540
000000a0: cfe6 9a3f 05f3 583f 31ee 94c0 a819 1dbf
000000b0: 8a28 ee3f 3d7b f6be 2383 47bb 2709 a73f
000000c0: 5323 a63e bead 893f cbb8 90c0 846a 213f
000000d0: 7ee2 0a40 d078 cdbd 886f 2b3f d08a 3ebf
000000e0: 7ace 693d f0a9 28be 2707 79c0 efa8 633f
000000f0: 5877 5940 fd73 6a3e ab01 2b40 bd5f 2cc0
00000100: d6c6 04c0 2416 ce3f 96d3 02c0 2b2e bd3f
00000110: 04be a43f a4d0 63c0 4f54 2440 5bbd 6c3f
00000120: 2c27 d0be 7095 a63f 20a0 c4bf 19e0 043f
00000130: 8a15 523f 3451 69c0 3606 193f 1c84 5740
00000140: ce3f f23e 75d6 763f 9d24 e6bf 89d8 70be
00000150: 4b7f 3b3f 867c 09c0 ab3f d0be a86e 6240
00000160: 423c 853f fe29 163f 5996 1ac0 e84e 24bf
00000170: 7b76 623f fecc 39bf 330a 3cbf fe2a 2d40
00000180: 66ed ab3f 25c8 883e 8a4b 49c0 4a59 6fbf
00000190: 947e 5c3f 0041 233f 1b01 8fbf a9f3 cc3f
000001a0: 145a 943f 443a 163f 1b5d 6bc0 9d8f 9cbe
000001b0: c12e 603f 0e82 ce3f d8fe 84bf a5d8 9e3e
000001c0: 24e4 4f3f 0ae2 a03e 4d37 83c0 0af2 523f
000001d0: 0ac6 903f 9801 0240 6899 9dbe f527 97bf
000001e0: ea27 04c0 8b4c a43f e6ff 9c3e 463f cf3f
000001f0: b38e d7be 4fda 8dc0 96de 763f 0839 4340
00000200: 2c3e 68bf 1d7d 3f3f 7ed4 1f3e aeeb d23e
00000210: 1020 82be 8a01 55c0 571a a5bd d0eb 6240
00000220: bed7 c9bc 456f bc3e ceb1 74bd b092 84be
00000230: 8e27 7dbe b5fe d1bf 09f0 40bf 530d 5740
00000240: 4ed3 593f 5a23 84be 9b03 44bf 6b6a 90bf
00000250: a996 82be 151d 19be 0b65 babf 2f04 3140
00000260: cf1b 933f 0bca 91be 02fe cabf 23d3 9bbf
00000270: 7f6c 8cbe 971f 9f3f c10e dfbf f70e ce3f
00000280: 4375 6f3f 1e65 093e 2288 03c0 129e aabe
00000290: ad89 353d 6d4c 1c40 8432 babf f662 883e
000002a0: 3f67 303f 0da0 c63e 78d3 1dc0 3755 563f
000002b0: 9d33 633e 2f7f 3940 bb45 75bf 76db 5abf
000002c0: 94ce 23c0 983e 013f f76c cb3f 9148 aa3f
000002d0: 42b0 4ebf 0b57 6bc0 a8ea 6c3f e401 da3f
000002e0: 0de4 edbf ee11 ccba 3d55 dc3f 774e 823e
000002f0: 804a 7bbf 1367 31c0 5044 82bd 0681 1e40
00000300: da84 6dbf 2249 ecbe 5740 c03f 20de a9be
00000310: 8997 8dbf 5675 aabf e4d1 5abf 23db 1740
00000320: 5f84 783e fb15 6dbf ce08 873f 7058 9fbf
00000330: c79e 50bf 9899 393e 1f91 dbbf 1db7 0640
00000340: 662f 063f b2cf 62bf cc3d 3e3d 9172 a4bf
00000350: 12e8 87bf f776 df3f fe18 f3bf a71f 653f
00000360: 81d1 e23e ea51 f33d 9d6d 26bf d3bf 55bb
00000370: 7b36 4abf f1d3 3d40 e086 b0bf a1e9 8cbe
00000380: ce0c e23e 431b f03e 2673 a2bf c4bd 8d3f
00000390: f8c7 3dbf e09a 7240 68c7 adbf 87fb 9dbf
000003a0: 9193 0bc0 6082 583e 6479 2240 cc20 9a3f
000003b0: a27d 41bf a826 36c0 d4e8 e63f 4c08 9d3e
000003c0: 64d1 ddbf 09fa 12bf 2e4b 5140 9588 4e3e
000003d0: 760c 5ebf 1899 14c0 b9b7 bf3e b0b7 593f
000003e0: edd2 59bf fe43 88bf 01a5 4e40 161a 0dbf
000003f0: b854 8cbf 950e 90bf 99cf 97be 2c8b 973f
-1.1408491 2.3732913 0.025211422 0.3708784 -2.4104595 0.25995243 -0.5084238 1.4669062
-0.1007682 4.3591003 -1.4350328 -1.2811921 -0.3080977 -0.84113187 2.931919 -1.0438001
-1.0695423 1.4856769 -3.2954988 0.49691182 2.3795123 -3.179959 2.5562365 0.9946428
0.4343579 1.6522471 -3.5378895 -0.2498738 2.0833163 -2.6060846 0.7748882 2.2529402
0.9182989 1.2084236 -3.9558203 -0.76230407 2.017374 -1.5749869 0.19186558 2.3435764
1.2101687 0.8474582 -4.654076 -0.61367273 1.8606122 -0.48140898 -0.0030443154 1.3049668
0.32448825 1.0756147 -4.5225577 0.63053155 2.170074 -0.10032809 0.6696706 -0.7443056
0.057081677 -0.16471076 -3.8910615 0.8892965 3.3979092 0.22895809 2.6719768 -2.6933434
-2.074636 1.6100507 -2.0441642 1.4779714 1.2870488 -3.5596094 2.5676458 0.92476434
-0.40654886 1.3014355 -1.5361366 0.51904446 0.82064116 -3.6455812 0.597751 3.3674383
0.47314304 0.96420985 -1.7979923 -0.23520102 0.7324111 -2.1482253 -0.40673575 3.538004
1.0409014 0.58657825 -2.4154265 -0.641829 0.88462037 -0.7257842 -0.7345306 2.705749
1.3431823 0.26715198 -3.1452355 -0.9349562 0.8613064 0.6377106 -1.1172212 1.6011859
1.158999 0.58682656 -3.6775577 -0.30578318 0.8757134 1.613344 -1.0390272 0.31024662
0.8120749 0.31422454 -4.1005006 0.8240057 1.1310437 2.0313473 -0.30781102 -1.1809069
-2.0649362 1.2835859 0.30663985 1.6191185 -0.42101058 -4.432899 0.9643339 3.050356
-0.90719867 0.7480028 0.15608403 0.41195434 -0.25415087 -3.328219 -0.080616646 3.5456429
-0.024639007 0.36803642 -0.05973988 -0.25893164 -0.2472212 -1.6405855 -0.75366265 3.3601882
0.8508805 -0.2580822 -0.76568 -1.1282476 -0.2550557 -0.149525 -1.4562086 2.7658803
1.1492862 -0.2847446 -1.5858767 -1.2173809 -0.27426526 1.2431515 -1.7426378 1.6098317
0.935383 0.1341748 -2.055184 -0.33323723 0.04432075 2.4421647 -1.4546666 0.26638
0.6890754 0.38793984 -2.466032 0.8372378 0.22187658 2.8983877 -0.95809525 -0.8549112
-2.5594835 0.50486135 1.5892628 1.3303396 -0.807377 -3.6771877 0.9254556 1.7031827
-1.858522 -0.0015569308 1.7213513 0.2545049 -0.9816055 -2.7719162 -0.06360686 2.476625
-0.9278084 -0.46149546 1.5019635 -0.3317728 -1.106187 -1.3317058 -0.8547652 2.37275
0.24269246 -0.92611665 1.0549562 -1.2448864 -0.81492275 0.18124998 -1.7153662 2.1049263
0.52416074 -0.8859817 0.046445653 -1.2847463 -1.0617697 1.745818 -1.8992002 0.8950142
0.44300464 0.11880858 -0.65011007 -0.0032615557 -0.7898938 2.9660609 -1.379116 -0.27521995
0.44150394 0.468958 -1.269139 1.1073537 -0.74133253 3.7907028 -1.3576479 -1.2342385
-2.1808817 0.21143484 2.538659 1.2041259 -0.75582325 -2.8461094 1.8039804 0.30670393
-1.7329526 -0.57412773 3.2702136 0.2016929 -0.86737764 -2.321844 0.37444857 0.8504591
-0.8508747 -1.064575 3.228821 -0.5511793 -1.0963354 -1.125445 -0.29650572 1.1839347

Patch_embed.patch_embed.0.weight f4 [8, 16]
00000000: 90f8 17c0 5fa4 b5bf b101 c0bf 7e17 04c0
00000010: a4f7 50bf 7a1f 8abf ffd8 5fbf effe bfbf
00000020: d817 26bf 3b46 8abf e890 4fbf af94 a4bf
00000030: d3c6 5b3f e944 cd3e 8bdb 483f cc01 f33e
00000040: caa8 00bf cf90 44bf 45eb f3be 7abd 23bf
00000050: 398d 9c3f 5b76 7e3f 4406 643f 103b 273f
00000060: b482 a53f 50e0 0c3f a6ef 743f 7dc9 2d3f
00000070: a7b2 fa3f 036f f63f 458b cb3f 6e65 a13f
00000080: 599d 08bf edcf 99bd ce8c 25be 5815 1e3f
00000090: 97bf ddbe 0d1e e9bc fd96 90bd bd3a 973e
000000a0: ec8b 86be e065 25be e8a3 33bd dc36 d83e
000000b0: f659 a73d ec65 e43e 91dd ea3e 3c9e 1a3f
000000c0: 2bcc 8cbf dc14 7fbf 8f44 95bf 4556 e23e
000000d0: 7cb2 f6be 58ac c1be 4fd5 0dbf 1596 ad3f
000000e0: 13e4 07bf 1b1c 1fbe 86b8 e3be c438 b53f
000000f0: 23ec 22c0 0d24 a4bf d2a8 b3bf e4c3 953d
00000100: 3b76 99bf a578 943f 1044 763f db2e d03f
00000110: 959d ddbf 1e6f a73e ec49 5c3e 527d bf3d
00000120: a31f a7bf 3b8c a63e 1f6a c43e 4a9e 823d
00000130: 1584 6abf 98b3 d03e 78ee e83e 732a 79bd
00000140: a8e3 c83f a55d 1c3f 785a 1b3f 6af3 c33e
00000150: ca25 463f 661e 903e fa38 8d3e 1404 073e
00000160: ef3c 6f3f 415b a03e 8863 aa3e d27c 813e
00000170: 8805 8f3d 7026 a9be 2c14 d4be f810 28bf
00000180: f172 3d3f f619 043f 0382 e33e f829 b1bf
00000190: 2868 e43e fe0d 16be dc06 55be 9569 0bc0
000001a0: 9e79 2d3f c16b 26be 52ff f8be fbf9 febf
000001b0: a066 69be b926 55bf 8d39 77bf 1c9c e4bf
000001c0: 3d36 643f 42fd 173f 20aa 0d3f eff2 2a3f
000001d0: cf7a 6e3e c3b2 06bd 8926 303c fac4 103e
000001e0: 4016 063f 31d4 71bd 8156 963d a278 613e
000001f0: e56e 22be 70e2 96be f4a0 98be c88a 0d3e
-2.374546 -1.4190787 -1.5000516 -2.0639338 -0.8162787 -1.0790856 -0.87440485 -1.4999675
-0.6488013 -1.0802683 -0.81080484 -1.2857875 0.85850257 0.40091637 0.78459996 0.47462308
-0.5025755 -0.7678346 -0.47640434 -0.63960993 1.2230598 0.99399346 0.8907206 0.653245
1.2930512 0.55029774 0.95678174 0.6788557 1.958577 1.9252628 1.5901877 1.2609079
-0.53365093 -0.07510362 -0.16166994 0.6175132 -0.43310234 -0.028456712 -0.07060049 0.29537
-0.26278627 -0.16152143 -0.043857485 0.42229354 0.081714556 0.4460901 0.45872167 0.60397696
-1.0999807 -0.99641204 -1.1661547 0.44206443 -0.48183048 -0.378268 -0.5540361 1.3561426
-0.5308239 -0.15538065 -0.44476718 1.4157948 -2.5456626 -1.2823502 -1.4035895 0.07312754
-1.1989206 1.1599318 0.96197605 1.6264299 -1.7313715 0.32701963 0.21512574 0.09350075
-1.305653 0.32528862 0.38362214 0.063778475 -0.9160779 0.4076202 0.45494437 -0.0608315
1.5694475 0.6108039 0.6068492 0.38271648 0.7740141 0.28148192 0.27582532 0.1318515
0.9345235 0.3131962 0.3327906 0.25290543 0.06983477 -0.33037138 -0.4142164 -0.6565089
0.7400351 0.51602113 0.4443513 -1.3840933 0.44610715 -0.14653775 -0.20803398 -2.1783192
0.677637 -0.16252042 -0.48632294 -1.9920038 -0.22793055 -0.8326221 -0.9657219 -1.7860141
0.8914526 0.59370816 0.55337715 0.6677694 0.23289035 -0.032885324 0.010751375 0.1413764
0.523777 -0.059040252 0.07340718 0.22018674 -0.15862615 -0.29469633 -0.29810297 0.13822472

Patch_embed.patch_embed.0.bias f4 [8]
00000000: 4b28 843e 181f 613d 0579 223f a2ab cabe
00000010: 6329 91bf 145f 113e 3f40 81bf 86d8 a13f
0.2581199 0.054961294 0.6346591 -0.3958407 -1.1340755 0.14196426 -1.0097731 1.2644203

Transformer_Blocks.0.att_block.0.weight f4 [8]
00000000: 3334 0f3f aaf2 153f 3d52 ef3e d601 0d3f
00000010: 07ea 063f 5079 013f 9ced fe3e fa5d 0f3f
0.55939025 0.585734 0.4674243 0.55080926 0.5270085 0.50575733 0.49790657 0.5600277

Transformer_Blocks.0.att_block.0.bias f4 [8]
00000000: b224 933e 57a7 71be e9a1 93bd 67dd 823e
00000010: b48a 9d3e 843e aabd 15ed b63e 1ed7 2dbe
0.28738934 -0.23598991 -0.07208616 0.25559542 0.30769885 -0.08312705 0.35727754 -0.16976592

Transformer_Blocks.0.att_block.1.qkv_prj.weight f4 [192, 8]
00000000: 643a b33e 5b96 2a3f 8803 af3f 803f 563f
00000010: a98c 2b3d 3ff4 873f d9bc 02c0 66c9 00c0
00000020: e326 bd3e 9f53 2dbf cac6 9d3f 1927 5dbf
00000030: 4ed3 3cc0 fb67 c53f 0cd4 a93f 8163 8a3f
00000040: b6f9 433d 00ad 143f 278d 853f fe52 9c3d
00000050: be9a 56be 41cb eabe 859e c8bf 8685 c43f
00000060: 7db6 0abf 4bec 053e e636 bdbf fa7d c6be
00000070: c612 0c3f a4c4 07bf 4a69 6dbd b54b 073e
00000080: 822b e13e 0cf5 f53d 1663 9fbf 5f73 833f
00000090: 41e1 79bd 0fb5 e23f 06ac 633f bb19 e7bf
000000a0: c13b 56bf 1d8d 5f3d 72ed 613f 9ac8 0bbf
000000b0: b65c dabf 8500 d13f 0b8b 6f3f bd80 39bf
000000c0: 195b 3cbf 8c0f c23f be5e 4fbe 4176 9bbf
000000d0: 9281 5c3d 83b3 613e ff94 bcbf 9915 e23f
000000e0: fde4 0540 1967 8abf 9157 b6bf d3a1 993e
000000f0: 0bbd c8bf 2826 343f 276f 25be 0c36 5fbe
00000100: 83cd dcbf 4fb2 b3be f17d 8ebf 26a6 61bf
00000110: 9f59 bf3f f9ad 943f ad47 6bbf 39a5 2040
00000120: 56f6 643f d71d 80bf 663c cfbf a55e 69bf
00000130: 30ee 3740 6e9a 453f 2e33 b0be 0fe0 b5bf
00000140: bd8f 2fbf caea 0e3f e7b3 48bf f217 a2be
00000150: 3464 6cbf 8268 b83f 1a7a 813f 3201 a1bc
00000160: a1da ddbf 444c eebf c69b dabe 4876 523f
00000170: 1e88 b53f 4d12 713f e607 673f bdf3 453e
00000180: d21a 99bf 5a14 843f d7c3 9e3f 2921 d83e
00000190: 450e 043f 2e79 32c0 f2ea 073f 2161 bbbe
000001a0: d72a e8bf 1b05 3cbf a074 693f 6de1 a53e
000001b0: 268b 093f bc33 6b3f 0fb7 303f 11f2 323e
000001c0: cfc1 b53e 5fcc b2be 320e d63e d334 d13f
000001d0: 1144 d53c 806a 4ebf 4970 67bf c967 03c0
000001e0: 55fd d33e 37ef 013f 1dd1 803f 56a9 76bf
000001f0: f386 97be 3758 11bf f9f9 ddbe 368a 2b3f
00000200: 4cd8 003f 0c30 813e 14cc 60be 2736 28be
00000210: 6454 84bd 62a4 423e f905 46be 3d9a 103f
00000220: 35c2 90be f508 d4bd d117 0340 ec59 d33e
00000230: a949 e4be f366 15bd dbbb cfbe 57e5 51bf
00000240: 3c9f 84bf 9b88 e83e be7f 28bf 388f 63bf
00000250: e4ae c83d 6d55 613f 2cc3 4b3e 4ff3 693f
00000260: 71b5 e63d 04bd 12bf 3037 b23f e991 4b3e
00000270: ce96 0bbf 3c5d 1f3f 3295 a93d 8aff e3bf
00000280: 9770 59bd 7835 cc3c be89 7fbd 33d2 8dbd
00000290: 2723 b3bc c327 20bd cb03 13bd 0532 c7ba
000002a0: 6d3a 35c0 2779 3b3f ddd5 8f3f 92fc 0abf
000002b0: 0fab bf3e 9db3 de3f 329c 113d a56d 8fbf
000002c0: d911 60bb ea22 493e 9eec 73be 182c b6be
000002d0: fdcd aabe 31f4 c2be 1f21 2abe 0ef4 dcbd
000002e0: fd5d 033f b800 f1be e28c aa3f 2d55 c8bf
000002f0: dda4 2fbf f43c a23f 7461 4fbf 0c41 903e
00000300: 2d2c 8f3f fa17 84be 5a24 b5bf 10a8 4d3f
00000310: 6dc1 013a 6e9d aa3f 9c31 41bf 3655 f4bf
00000320: c1e8 4d3f 28a3 c2bf f1bb c4be f37e 31bf
00000330: d9e2 723f 6eb9 91bf 96f8 383f b740 24be
00000340: 4126 d1bf adb4 ac3f a82d bd3f 9899 92bf
00000350: 394b 403f 834d d33e f873 a2bf 5c8f d23e
00000360: 51ac 2c3e 02b9 adbe 45ee ecbf 5ebc 893d
00000370: 63c3 5dbf 50d3 a73f 5a07 ef3e fd8e d3bf
00000380: ea68 4cbe 9970 7abf 946a 903f fb6c 4a3e
00000390: c866 d93e c8df ba3f 66db 31bf 71a5 53bf
000003a0: e86e 9e3f f285 8fbe baad 67bf b450 793f
000003b0: 9045 c6bf 1f2a 2dbf cd13 c83e 8039 a63e
000003c0: b312 b93e 3f8b 09bd fb84 063f 16e8 cabe
000003d0: a007 42bf 37b1 12bf 0511 103f 2819 493f
000003e0: fd07 943e f51f 09bb e222 30bf 0037 9a3f
000003f0: a708 8fbe ab5d 293b 5580 27bd 7a51 76be
0.35005486 0.66635674 1.3672953 0.83690643 0.04188219 1.0621413 -2.0427763 -2.0122924
0.3694373 -0.6770572 1.2326291 -0.86387783 -2.950397 1.5422357 1.3267837 1.0811616
0.047845565 0.5807648 1.0433701 0.07633017 -0.20957467 -0.45858195 -1.5673376 1.5353248
-0.54184705 0.1307842 -1.4782379 -0.38767987 0.54716146 -0.53034425 -0.05796174 0.13212474
0.43978506 0.120096296 -1.2452114 1.0269583 -0.061005834 1.7711505 0.8893436 -1.8054727
-0.8368493 0.054577935 0.8825294 -0.5460297 -1.7059543 1.6328284 0.9357154 -0.72462064
-0.73576504 1.5160995 -0.20250985 -1.2145463 0.053834505 0.22041135 -1.473297 1.7662841
2.0921013 -1.0812713 -1.4245473 0.30006275 -1.5682691 0.7037072 -0.16155683 -0.21797961
-1.7250217 -0.35096976 -1.1132184 -0.8814415 1.4949225 1.1615592 -0.91906244 2.5100844
0.8943838 -1.0009106 -1.6190307 -0.9116004 2.8739128 0.77188766 -0.34414047 -1.4209002
-0.685787 0.5582701 -0.7839951 -0.31658894 -0.923404 1.4406893 1.0115387 -0.01965389
-1.7332345 -1.8617024 -0.4269697 0.8221173 1.4182165 0.9416855 0.9024643 0.1933126
-1.196131 1.0318711 1.2403516 0.422128 0.51584274 -2.7886462 0.53092873 -0.3659754
-1.8138074 -0.7344529 0.9119358 0.3239855 0.5372795 0.91875815 0.69029325 0.17475154
0.35499427 -0.34921548 0.41807705 1.6344246 0.026033433 -0.80631256 -0.9040571 -2.0532095
0.41404215 0.5075564 1.0063816 -0.96352136 -0.29595146 -0.5677523 -0.43354777 0.6700777
0.5033004 0.2523197 -0.2195285 -0.16426907 -0.06461409 0.1900802 -0.19338216 0.5648535
-0.28273168 -0.10353271 2.0483286 0.41279542 -0.44587448 -0.036475133 -0.4057301 -0.8199057
-1.0361094 0.45416722 -0.6581992 -0.8889041 0.09798983 0.88020974 0.19898671 0.91386884
0.11265076 -0.57319665 1.3923092 0.19879879 -0.54526985 0.6225164 0.0828041 -1.7812359
-0.05308589 0.02492784 -0.06238722 -0.06924858 -0.021867348 -0.03910042 -0.03589229 -0.0015197402
-2.831691 0.7323174 1.1237141 -0.5429164 0.37435195 1.7398564 0.03554935 -1.1205336
-0.0034190326 0.19642225 -0.23820731 -0.35580516 -0.33360282 -0.38076928 -0.16614197 -0.10788737
0.5131529 -0.4707086 1.3324244 -1.5650994 -0.68610936 1.2674851 -0.81008077 0.28174627
1.1185356 -0.25799543 -1.4151719 0.8033457 0.0004949782 1.3329294 -0.7546632 -1.9088504
0.8043328 -1.5206041 -0.38424638 -0.69334334 0.9487739 -1.1384714 0.7225431 -0.16040312
-1.6339799 1.3492638 1.4779558 -1.1453123 0.7511478 0.41270074 -1.2691641 0.41125
0.16862608 -0.33930212 -1.8510214 0.06725381 -0.8662626 1.3111362 0.46685296 -1.6528012
-0.19961897 -0.9782806 1.1282525 0.19768135 0.42461228 1.4599543 -0.694754 -0.8267432
1.2377596 -0.2803188 -0.9049946 0.9738877 -1.5489979 -0.67642397 0.39077607 0.32465744
0.3614708 -0.03358006 0.5254666 -0.39630193 -0.75792885 -0.5730166 0.5627597 0.7855401
0.28912345 -0.002092359 -0.68803227 1.2048035 -0.2793629 0.0025843184 -0.04089387 -0.24054518

Transformer_Blocks.0.att_block.1.out_proj.weight f4 [8, 64]
00000000: 20af dfbc 7ab6 943f 20df bf3f 3420 e5bf
00000010: 0ed5 863e f60f 673f 9546 f13e 5e80 86bf
00000020: 59d9 30be 904e 373f 5b0b 863f a634 dd3d
00000030: 3f4a 0cbe 7c60 053f fc4a 443f 9322 2fbf
00000040: d91f 093f 07f7 50bf b6db ff3e 49c8 17be
00000050: 364a 01bd 6d95 c63d 1490 51bf e332 bcbf
00000060: 8395 853f 3709 7fbe 14bf 6bbe 1a99 033f
00000070: 33fb 0fbc 8e98 adbf 999d 20c0 b131 2cbf
00000080: caf7 dbbe f755 223f fac9 84bf b24c ac3f
00000090: 40ba d33e 08ab de3b fa6d 923d 77e8 a1be
000000a0: 61f8 423e f4f7 f03a 14e5 da3e 9e23 c9bf
000000b0: 81f8 a43f 8bbe fabf 529a b0bd a3f3 81be
000000c0: 8066 d9be 0521 d33e b279 9ebe c96a 05bf
000000d0: 140f 18bf bce9 a1bf 46e6 73bc 1bce a9bf
000000e0: f40d 43be 7602 96bf a7c8 f3be 3743 d33f
000000f0: cffb 44bf a2f5 d93e 110f fe3f 17b9 913f
00000100: 9a44 8fbe b674 583d 6f39 e8bf 241c f83d
00000110: 74c2 123f 3ecc 2cbf 4a80 a3bf 8c3f f63d
00000120: 5321 d2bf 016a 54bf 6d60 b3bc e417 18be
00000130: da29 ff3d cec3 28bf 4a48 9d3f 1e64 18bf
00000140: f74c 17bf d297 9cbf 29b9 e1be 323c dfbe
00000150: 73f9 393d bd20 91bf 3452 943e 1e14 01c0
00000160: dd08 813f 7766 03bf cae5 163f d391 86bf
00000170: 6be9 afbe f6bb 933f 9dc1 aa3f b205 1c3f
00000180: acd4 0d3e 65cd 3abe 7bfb 43bf 41d8 56bf
00000190: 5a86 45bf e865 7bbf 2198 073c c84b 133f
000001a0: 8130 43be edd7 ebbe 9acf 2dbf b2df 703f
000001b0: 8f7a 843f 8f98 783f ca7e 4ebf 6fb2 923f
000001c0: b8b0 1cbf f4ad 8f3e 8c2e f33d 7011 adbe
000001d0: b1dc 9cbe 9d83 fcbe ac57 9bbe d0ce 993d
000001e0: 30c8 a93f 1d0d f4be b12b 18be 2f1b e8bf
000001f0: f65e 2dbf 3c1c 30bf b43f 2dbe 04cd 02c0
00000200: 31a0 573f 26e9 cdbe 8896 4b3d 55fb 83be
00000210: 7a23 463f ff52 99be 0199 c63f e0fc 75bf
00000220: b9ec 0f3f 47e0 273f ac1a bf3e 051a fabe
00000230: 4eb3 853e 775c e7be 1bbf 31bd e46d 87bd
00000240: 84c3 1cbf 2c71 f63f 587e 14bf d696 c83f
00000250: a6ef 9939 8574 093e 892e 413f 5b74 653f
00000260: 7a3a 06bf 420d 383e f742 0dbf b5b1 e93f
00000270: a14a b1bd 9ffd 233f 3801 173f 0740 eb3f
00000280: b97f bc3f 4354 513f 3c75 8cbe 90e8 ca3d
00000290: 89d8 4fbe e4b1 273e d726 9d3d e89c d2be
000002a0: 46c4 403e d351 26bf 098d e63e 570f 0c3e
000002b0: 6b11 edbf d0fb 0dbf b6f7 0c3d c5c8 a9bf
000002c0: 6427 453f c591 36bf 3c4e f93c 1464 21bf
000002d0: 456f 4c3f 6d29 5b3e 9f02 a43e 4571 843f
000002e0: defd 7f3f ea99 203f 610b c93f 42ee 03bf
000002f0: e729 0fbf 38a5 c0bd 98ae e33c 9c39 78bf
00000300: 55ac 753e 5258 2bbd c070 a33f 0586 c03e
00000310: 6935 3ebf 2530 3d3f b85b 4f3f c438 913d
00000320: f950 c1be 2b2b eebd 909f ae3d 1b44 ecbf
00000330: 253b aabf 7241 45bf 670d f23e 042c 643e
00000340: d313 293e 55f3 7d3f a2ef 5dbf b8f1 003f
00000350: 6685 9bba e86b f4bc 24e0 ae3e fefa 44bd
00000360: f04e 4c3f 4b8f c7be 36f8 323f d77a 6abf
00000370: a66b cc3f b7c5 f13d 8720 0f3f c057 a43f
00000380: c44c 9fbf ddf8 b1bf e7d9 3c3f b7f9 383e
00000390: 1503 98bd 69f8 973f 5dd1 cd3d e043 aebf
000003a0: 94fe 42bf 9a56 f9bb 214e 2e3f 958e 773e
000003b0: f146 453f 33c1 6c3f a743 bc3e 8155 063f
000003c0: 59a5 49be ad2a 023f afd5 1f3e f1ba 46be
000003d0: 07dc 523e e0c0 94bf e638 79be 18f9 54bf
000003e0: d615 fcbe 76a8 c73e 0669 bb3e 7ab9 7dbf
000003f0: 058c b6be e88e d33d 2e8a 6cbe 36d0 29be
-0.027305186 1.1618187 1.4989967 -1.7900453 0.26334423 0.9025873 0.47124162 -1.0507925
-0.17270412 0.7160425 1.0472215 0.108010575 -0.13700198 0.5210035 0.7667692 -0.6841213
0.5356422 -0.81626934 0.49972314 -0.14822496 -0.031564914 0.096964695 -0.8186047 -1.4703029
1.0436252 -0.24905859 -0.2302211 0.5140549 -0.008787918 -1.3562181 -2.509619 -0.67263323
-0.42962486 0.6341242 -1.0374138 1.3460906 0.41353035 0.006795291 0.071498826 -0.3162267
0.19040062 0.0018384443 0.42752898 -1.5713995 1.2888337 -1.9589399 -0.08623184 -0.25381193
-0.42461014 0.4123613 -0.3095222 -0.52116066 -0.5939801 -1.2649455 -0.014886444 -1.3266023
-0.19048291 -1.1719501 -0.47614023 1.6504887 -0.7694673 0.42570215 1.9848348 1.138461
-0.27982026 0.05284568 -1.8142527 0.121147424 0.5732796 -0.6749915 -1.2773526 0.12023839
-1.641642 -0.8297425 -0.021896565 -0.14852864 0.124591544 -0.65923774 1.2287686 -0.59527767
-0.59101814 -1.2233832 -0.44086578 -0.43600613 0.04540391 -1.1338116 0.28968966 -2.0168529
1.008083 -0.51328224 0.5894438 -1.0513252 -0.3435777 1.1541736 1.3340336 0.6094619
0.13850659 -0.18242414 -0.76555604 -0.8392373 -0.7715813 -0.9820237 0.008276016 0.5753751
-0.19061472 -0.46063176 -0.678949 0.9409133 1.0349902 0.97107786 -0.80662215 1.1460704
-0.6120715 0.28062403 0.118741125 -0.33802366 -0.30637124 -0.49319163 -0.30340326 0.075101495
1.3264217 -0.47666255 -0.14860417 -1.8133296 -0.67723024 -0.6879308 -0.16918832 -2.0437632
0.8422881 -0.4021694 0.049704105 -0.2577769 0.7739788 -0.29946133 1.5515443 -0.9608898
0.56220585 0.65576595 0.37325037 -0.48847976 0.2611336 -0.45187733 -0.043395143 -0.06612757
-0.61235833 1.9253287 -0.58005285 1.5671031 0.00029360986 0.13423355 0.7546163 0.8963067
-0.5243298 0.17973807 -0.55180305 1.8257357 -0.086568125 0.6405887 0.58986235 1.8378915
1.4726478 0.817692 -0.27433193 0.09907639 -0.20297445 0.16376454 0.07673424 -0.41135335
0.18824872 -0.64968604 0.45029476 0.13677727 -1.852094 -0.5546236 0.034415923 -1.3264395
0.7701323 -0.71316177 0.030432813 -0.6304333 0.79857284 0.21402521 0.3203325 1.0347067
0.99996746 0.62734854 1.5706598 -0.5153543 -0.5592331 -0.09406513 0.027793214 -0.96962905
0.2399152 -0.041832276 1.2768784 0.3760225 -0.7430025 0.7390159 0.80999327 0.07090905
-0.3775709 -0.116293274 0.08526528 -1.8458284 -1.32993 -0.77052987 0.4727585 0.22282416
0.16511469 0.9919942 -0.86693776 0.50368834 -0.0011865317 -0.02983661 0.3415538 -0.048090927
0.7980795 -0.3897651 0.6990999 -0.9159369 1.5970352 0.11805289 0.5590901 1.2839279
-1.2445302 -1.3904072 0.7376999 0.18064009 -0.07422463 1.1872684 0.100496985 -1.3614464
-0.76169705 -0.0076092007 0.68087965 0.24175484 0.77061373 0.924823 0.36770365 0.5247422
-0.19691981 0.5084637 0.15608858 -0.1940725 0.20591746 -1.1621361 -0.24338111 -0.83192587
-0.4923541 0.38995713 0.36603564 -0.9911114 -0.356537 0.103299916 -0.23099586 -0.16583332

Transformer_Blocks.0.att_block.1.out_proj.bias f4 [8]
00000000: 4c8b 1a40 eed1 4cbf 3416 233d 6a38 df3f
00000010: 16e8 a5bf e538 4bbf 250b d13d 151b afbf
2.414752 -0.8000783 0.039816096 1.7439091 -1.2961452 -0.7938369 0.10207204 -1.368014

Transformer_Blocks.0.FC_Block.0.weight f4 [8]
00000000: 702f ec3e 1e59 1e3f b0ac 313f bb85 453f
00000010: 19af 293f 3e20 173f 4e38 5a3f 1a19 103f
0.46129942 0.6185473 0.69404125 0.7715718 0.662828 0.5903357 0.85242164 0.562883

Transformer_Blocks.0.FC_Block.0.bias f4 [8]
00000000: 99e2 04be a8a3 87bf dbce 85be 1e8a 8ebd
00000010: 1614 b6bc fb7a 01bd 7135 febe 1abf 773e
-0.12977065 -1.0596819 -0.2613438 -0.069599375 -0.022226375 -0.031611424 -0.49650148 0.24193993

Transformer_Blocks.0.FC_Block.1.network.0.weight f4 [32, 8]
00000000: 2366 acbf 6786 a63f e2e6 aebd 1750 8f3f
00000010: 148a 213f 87dc 103f 3405 123f 9fb0 adbf
00000020: 9466 61be 2a7b e6bd aeb5 df3e 3368 753f
00000030: 4f09 e63f 467d b6bf 9905 523f 1c81 a6be
00000040: 27ef 193f 7f6a 1040 a512 e73f c7f5 67bf
00000050: 0b68 a73e d38b ccbd 64ff c3be 400c 98be
00000060: 6793 93bf a1b6 063f 5053 c43e b9fd 74bf
00000070: b951 7ebe d541 09bf 8bee ac3e 6395 883f
00000080: a40f f7be ab1b aa3f e909 64be 2f53 8c3e
00000090: 3f5d 01bf 3477 66bd 5739 9f3f 320d afbe
000000a0: 81bf 733d 551d 933d 7915 da3d befa 253d
000000b0: abef 66bc 93c9 7a3d 002e f93d feb9 0b3d
000000c0: 7d6f a0be 6c30 9f3f a318 7bbf 0ed8 2d3e
000000d0: 2262 a4be a0e4 fd3d 3642 af3f a016 bb3b
000000e0: 82b0 9a3d 432f 60be aeb0 74bf 59b7 ca3d
000000f0: 054b 9ebe 5694 913f e8c7 ca3f 670a 963f
00000100: 5a25 31bf aa7a e83f eb26 9cbf 914d 873f
00000110: ea0d d2be 939d 50bf 1929 663f f38b 383e
00000120: aae5 b4be 2ece 333d e7fb 003f 7b43 c53f
00000130: a315 04be 7463 a43f 933a 43bf 1978 07be
00000140: b15d 8fbe b57f 583e d03b 623e 1e03 c7bf
00000150: 40df fa3f 79b6 bb3d b96b 703f d195 a1bf
00000160: 7bd0 35bf f6e7 cb3e 2940 923f ac84 3d3f
00000170: 28e5 cdbe 6ca8 9e3e 459c c43f 7051 ccbf
00000180: 102e 663e fbc7 eb3f 5250 0cc0 99c0 093f
00000190: e27a 9d3f 2421 3fbf b471 353f 15af c23d
000001a0: 8537 a53f dcc3 663e ee11 833e 5d90 2ebf
000001b0: 6e10 76bf 8629 bd3f 8fd1 eb3f c427 23be
000001c0: 5e6e 1e3f 71dd f93d 9db4 6fbe ac8c 22bf
000001d0: 28dc 0abf e425 1b3f 599e 943f 73e1 fd3e
000001e0: c832 0cbf 6035 a03f e7a1 e4be 0031 7dbf
000001f0: 2ae3 d23f 89a2 afbf 2ccd 7f3f ee25 1abf
00000200: e541 01bf be5b c03f c414 9bbe 51e6 86be
00000210: bf9f f13f 9acd cfbc eabf d73e 97d5 08bf
00000220: 46c4 81bf bcec b23f dbe1 1abf 9e0a af3f
00000230: 90d0 0840 2230 b6be 306c 043e 96d3 6ebf
00000240: 166e 58bd a4e9 523f 3210 06bf 1b2d dbbe
00000250: e98d ca3f 9566 aa3f 1a6d 3f3e 700b c1bf
00000260: b81d 0d40 199e 0f40 38ff 0dbe 3d8e 1a3f
00000270: 49f8 06bf 0d8a 993d 7289 dabe ea8b 96bf
00000280: 4bd6 09bf bb04 ec3e eb0f 253f 6ae5 e5be
00000290: 6ad2 e73f 6ed2 4abf e522 82bd 074b 833e
000002a0: c7ab a4bf bc16 823f 1a66 4dbf 77c9 cc3f
000002b0: 22e6 693f 850a bbbf a57f ba3f c4f1 a9bf
000002c0: 9de5 af3e 33ad db3d bb6f c03d a84a d0bf
000002d0: 45e1 ad3f 239f 8e3c 4bee 4c3f 16c8 993e
000002e0: 3189 c7bf 14ab bf3d fe81 83bd 69a7 64bf
000002f0: 8eab 1a40 1c5c fd3b 2c87 d33f c11f 913f
00000300: 6f21 ac3f f791 3e3f b711 debf f6f6 413f
00000310: bab2 443f 51f8 92be 3871 553e 131d 90bf
00000320: be9e 563f 91c5 8d3e 2b2a 8e3f 724b 2b3f
00000330: 6b87 a93e 9aec bbbf 3874 383e 132d 19bf
00000340: d86e ac3f 6ca7 06be 772c 36be cea8 0b3f
00000350: f618 aa3f dc5a 3d3f 81e4 303f 206f 0ec0
00000360: 13d7 913f b6b0 863f 4dc9 22bf bff4 973f
00000370: 4183 8cbe ee8f d3be ebee a63f d691 b2bf
00000380: 6385 2a3f 31c2 5f3f b4ce d13f 60f9 bdbe
00000390: dae3 45bf 7321 753f ff81 01bd 978e cfbd
000003a0: b436 20bf 0668 613f 9ced 7dbf afc8 bb3f
000003b0: 98e0 35be aca9 8cbf 0033 a73f b329 29bf
000003c0: 0555 42bf 8149 303f 5b49 853f a436 47bf
000003d0: c417 ff3d c85a 8a3f 4316 bebe 6907 a3bb
000003e0: 45c6 89be 8aec a93e 819d d8bf 7396 e6be
000003f0: 31f6 a43f ae4e 223f b405 05bb a899 183f
-1.346867 1.3009766 -0.08540131 1.1196316 0.63101315 0.565865 0.5703919 -1.3569525
-0.22011787 -0.112539604 0.43693298 0.9586212 1.7971591 -1.425698 0.8203979 -0.32520378
0.6013054 2.2565 1.8052565 -0.906094 0.32696566 -0.09987607 -0.38280785 -0.29696846
-1.1529359 0.5262242 0.38344812 -0.9569965 -0.24835862 -0.53616077 0.33775744 1.0670589
-0.4825412 1.3289694 -0.22269405 0.27407214 -0.5053291 -0.056266025 1.2439374 -0.34189755
0.059508804 0.07183329 0.10648627 0.04052233 -0.014095227 0.061227392 0.12166977 0.034112923
-0.3133506 1.2436652 -0.9808447 0.1697695 -0.3210612 0.123971224 1.3692081 0.005709484
0.075531974 -0.21893029 -0.9558209 0.09898252 -0.3091661 1.1373394 1.5842257 1.1721925
-0.6919762 1.8162434 -1.2199377 1.0570546 -0.4102624 -0.8149044 0.8990646 0.18022136
-0.3533147 0.0438978 0.5038437 1.5411218 -0.12898879 1.2842851 -0.7626125 -0.13229407
-0.28001168 0.21142466 0.22093129 -1.5547826 1.959938 0.09165663 0.9391437 -1.2623845
-0.7102124 0.3982541 1.142583 0.74030566 -0.40213895 0.3098787 1.536019 -1.5962353
0.22478509 1.8420404 -2.1924024 0.53809506 1.2303126 -0.74659944 0.7087662 0.095060505
1.2907568 0.22535652 0.25599617 -0.6818903 -0.9611882 1.4778297 1.8423327 -0.15933138
0.61887157 0.1220044 -0.23408742 -0.634959 -0.5424218 0.6060469 1.1610824 0.49586067
-0.54764986 1.2516289 -0.44654772 -0.98902893 1.6475575 -1.3721477 0.9992244 -0.60214126
-0.5049117 1.5027997 -0.3028928 -0.26347592 1.8876876 -0.025366593 0.42138606 -0.5345091
-1.0138023 1.3978496 -0.6050088 1.3675115 2.1377296 -0.35583597 0.12931895 -0.93291605
-0.05283936 0.8238776 -0.5236846 -0.4280785 1.5824558 1.3312556 0.18693963 -1.5081615
2.204939 2.2440245 -0.1386689 0.6037329 -0.52722603 0.07497034 -0.42682987 -1.1761448
-0.5384261 0.4609736 0.64477414 -0.44901592 1.8111088 -0.7922734 -0.06354312 0.2564318
-1.2864922 1.0163188 -0.8023392 1.5998982 0.9136678 -1.4612585 1.4570204 -1.3276906
0.3435487 0.107263945 0.09396311 -1.6272783 1.3584372 0.017409867 0.80051106 0.30035466
-1.5588742 0.093588024 -0.064212784 -0.8931795 2.4167209 0.0077319276 1.6525626 1.1337816
1.3447703 0.74441475 -1.7349156 0.7576746 0.76835215 -0.28705075 0.20843971 -1.1258873
0.8383597 0.27689794 1.1106619 0.66911995 0.33111128 -1.468158 0.18013084 -0.598344
1.3471327 -0.13149804 -0.177904 0.5455445 1.3288867 0.73966765 0.6909867 -2.2255325
1.139376 1.0522678 -0.6358841 1.1871566 -0.2744389 -0.41320747 1.3041662 -1.3950756
0.6660978 0.8740569 1.6391206 -0.3710432 -0.773008 0.95754164 -0.031618115 -0.10134619
-0.6258347 0.8804935 -0.9919069 1.4670619 -0.17761457 -1.098928 1.3062439 -0.6607925
-0.7591098 0.6886216 1.0413011 -0.7781775 0.12455705 1.0808954 -0.3712636 -0.0049752486
-0.2690908 0.33188277 -1.6923066 -0.4503666 1.2887632 0.63401306 -0.0020297589 0.5960946

Transformer_Blocks.0.FC_Block.1.network.0.bias f4 [32]
00000000: f7d6 b1be 472f 82bf 0162 90bf 371f 6abf
00000010: eb23 fabe f5dd b0bd 5815 86be aa96 ddbf
00000020: b229 4fbf 82d5 f8bf 2759 54bf c3ed dfbe
00000030: 55be 3ebf 84cc b6bf 484a 19bf bf4d 35bf
00000040: 61cd 32bf 8b29 abbf ed06 5fbf cf31 bdbf
00000050: 4dcb 14bf 94ed 07bf 02ae bebe 6c9d 12bf
00000060: 9bc4 b1bf 6ca9 52bf 3d4d 6ebf 5bc5 1bbf
00000070: b709 6dbf 5daa 40bf d663 5cbf 9f17 babf
-0.34734318 -1.0170678 -1.1279908 -0.9145388 -0.48855528 -0.08636085 -0.2618816 -1.7311604
-0.80922997 -1.9440157 -0.82948536 -0.43736085 -0.74509174 -1.4281163 -0.5987897 -0.70821756
-0.69844633 -1.3372053 -0.8711994 -1.4780825 -0.5812271 -0.5309689 -0.37242132 -0.57271457
-1.3888124 -0.8228977 -0.93086606 -0.60848016 -0.9259295 -0.75259954 -0.8608984 -1.4538459

Transformer_Blocks.0.FC_Block.1.network.3.weight f4 [8, 32]
00000000: f171 a0bf 1362 fabe 7b6c 0d3f dd05 26be
00000010: 9cb2 fc3e 0132 aabd 186e 1d3c 540a 8a3e
00000020: f88c ff3e 3679 443d 9592 1b3f 9f56 3f3f
00000030: f423 86bb 470f dd3e 53a9 d7be 7d8d a1be
00000040: 5c80 9dbc 35a9 d43e 7db9 5abf 0adc d93f
00000050: e935 563e 98f6 64bf 641e 60be c8c2 623b
00000060: 3b13 cebd a283 5b3e 54c3 a3be 6c3b 76bf
00000070: 4915 1f3d baea 24be 52b8 f8bd 1c1b 883f
00000080: ecd2 963f 0180 27be f57b 593f 4de9 cabd
00000090: 173a 7dbd 09b3 323d 8978 95be 2aab 81bf
000000a0: a604 f1be 4c55 cd3e 0558 e43e 4729 00bf
000000b0: 03b0 debf d44a 62be ab5e b8bd 5946 5e3d
000000c0: b803 8bbe d24f 88bf 8628 2f3f b6d5 7e3e
000000d0: db21 b63e 1bac e43f 076b 903e aae6 af3e
000000e0: cfd3 9dbf b3ba 9fbe f059 24be 52a4 39bf
000000f0: d2a4 15bf 1732 043f e8a4 afbe d161 713d
00000100: dca6 f5be bc8a b93d e52d 3dbe 6427 3cbc
00000110: f7e3 0cbd 780b a0bc 6a08 ac3e b6d0 663e
00000120: 7d8a 0c3f a62b 873e 1379 013f 346e f4be
00000130: a923 ee3e e92d 0c3f 4881 c33e e2fb 813f
00000140: e049 b03e 76f8 63be 6da2 0d3e eb05 103e
00000150: 65d9 49bd 706f 2f3e ca29 643e 0c27 66be
00000160: 35b2 db3e b2a6 473e 20e0 50be 0671 613e
00000170: 3138 b43d 9a58 013f c798 c73d 7e33 a2bd
00000180: c7f6 2fbf 4dc5 3f3f 4213 08bf 9835 e03e
00000190: f7ae 9bbe b7a5 8ebc 7e6d 163f 5dcc 593d
000001a0: 47c0 b4bd 6d00 88be ca6c 18be 4687 49be
000001b0: 6c2d ad3e cd7e 30bf b60d 63be 6f5f 27bf
000001c0: c79c 093e c6fe 89bf 1b32 d83e 2c8c 27bf
000001d0: f60b c1be 4eb7 2a3f 2c28 d93e a2e9 233f
000001e0: 6e41 783e f8d6 d63e 68be 483f d5ba 3cbd
000001f0: 26c5 0a3e c8c3 1a3f fe4e 913c 56e7 a03d
00000200: b41c 3e3e 9786 ea3e a30d d53e 1fce 24be
00000210: 10d4 90bd 76cd e8bd 504f 8bbc 02c9 8a3d
00000220: 585e 95bd edff 2f3e a929 4dbf a117 2b3d
00000230: 0533 aabe 0ba4 023f 1ba6 3b3f 3ca6 b6be
00000240: 93e6 65bd d9bb 77bf 4fd3 01bf cc3e a43d
00000250: ed7f 3abf 4a0e f73d 660d 263d 262f 8fbd
00000260: 2ede 8ebe f001 1ebd e974 c1bd 4008 513e
00000270: 4f83 a43d 390e 693d 9eec f0bd d56f 87be
00000280: eeee 893e 6912 b83e 1b06 c6be 4869 90be
00000290: 205d bf3c 1ee4 79bd 86ab 923e 206d 1cbe
000002a0: f00f 423f b00c 08bf c062 f83d 8649 36bf
000002b0: 7ee7 97be 53c2 a5be a0ce 80be 9313 ed3e
000002c0: d964 e1be c871 99be cfe2 6dbe dd1e 62bf
000002d0: 63dc 123e c789 dc3e 5b89 ee3d 72de 863e
000002e0: f125 fc3c b573 0a3d af13 3ebe 8c4d 22bd
000002f0: 38ad bf3d 6c9a 6b3f aa78 803e bac8 c8be
00000300: 1584 083f 542d 76bf eb6f 2fbe 7454 c83e
00000310: cfb5 05bf 683a f13c 9f1a 41bf 6e28 323f
00000320: 02a3 14bf 35b9 f83a ddbc 62be 242c eabe
00000330: d9a7 70be a0bb fdbd bc9c b0be 35c0 56bf
00000340: 2251 8ebd 06df e83f 5269 473e 4fa5 3ebf
00000350: bdca da3e fa3a c1be 2604 f7be 0172 88be
00000360: f9e7 083f f47e 1fbe b0b8 233f 0a95 dc3e
00000370: e7ca 253e 7007 44bf c9c3 f83d 710e a93e
00000380: 7353 183f adcf f43d 15e0 fabd f97b 13be
00000390: bec5 723f df3f 2b3d dcd8 593f ccea 503e
000003a0: dac0 f7be 4976 cebe 77e5 f0bc 280a 633f
000003b0: 28bb 2e3f d23d babe 4c8d 3bbe 9bdc 8bbf
000003c0: ff40 8ebe d3df 9c3f 6a56 273f d287 683e
000003d0: ac92 963e f296 3abf 4764 183e d4be b1be
000003e0: 1f5c aabe f4a8 02bf 10a2 c7be 727c 9ebe
000003f0: 0157 9e3d a958 41bf 6b0f 8abe ca50 0ebe
-1.2534772 -0.4890295 0.55243653 -0.16213174 0.49355018 -0.08310319 0.009608768 0.26961005
0.49912238 0.04796716 0.6077054 0.7474155 -0.0040936414 0.43175718 -0.42121372 -0.3155326
-0.019226246 0.41535345 -0.8543928 1.7020276 0.20919003 -0.8943877 -0.21886593 0.0034600962
-0.10062262 0.21436933 -0.3198496 -0.9618442 0.03883866 -0.16105166 -0.12144531 1.0633273
1.1783118 -0.16357423 0.8495477 -0.0990778 -0.061822977 0.043627772 -0.29193524 -1.013036
-0.4707386 0.4010414 0.44598404 -0.50062984 -1.7397465 -0.22098857 -0.090024315 0.054266308
-0.27151275 -1.0649359 0.6842121 0.24886212 0.35572705 1.7865022 0.28206655 0.3435567
-1.2330264 -0.31197128 -0.16049933 -0.7251636 -0.5845462 0.5163893 -0.343055 0.058931176
-0.47978866 0.090596646 -0.18474539 -0.011484001 -0.03439709 -0.019536719 0.3360017 0.22540554
0.54898816 0.2640049 0.5057537 -0.47740328 0.46511582 0.54757553 0.3818457 1.0154994
0.34431362 -0.22262749 0.13831492 0.14064758 -0.04927959 0.17132354 0.22281566 -0.22475833
0.429094 0.19497183 -0.20397997 0.22015771 0.0879978 0.5052582 0.09745937 -0.079199776
-0.6873593 0.7491043 -0.53154385 0.4379089 -0.30406925 -0.017413003 0.5876082 0.05317341
-0.088257365 -0.26562825 -0.1488525 -0.19680509 0.33823717 -0.6894348 -0.22173199 -0.65379995
0.13438712 -1.0780876 0.42225727 -0.6544826 -0.37704438 0.6668595 0.4241346 0.6402837
0.2424371 0.41960883 0.78415537 -0.046076614 0.13551769 0.6045499 0.017737862 0.07856624
0.18565637 0.4580581 0.41611966 -0.16094254 -0.07071698 -0.113673136 -0.017005593 0.067766204
-0.07293385 0.17187472 -0.80141693 0.04177058 -0.3324205 0.5103156 0.7330033 -0.35673702
-0.056128096 -0.9677101 -0.50713056 0.0801979 -0.7285145 0.12063272 0.04054012 -0.06991415
-0.27903885 -0.038576066 -0.09446127 0.20413303 0.080328576 0.05689833 -0.11763881 -0.2645251
0.269401 0.35951546 -0.38676533 -0.28205323 0.023359835 -0.061008565 0.28646487 -0.15276003
0.7580557 -0.5314436 0.1212821 -0.7120594 -0.29668802 -0.3237482 -0.25157642 0.46303996
-0.44022253 -0.2996962 -0.23231052 -0.88328344 0.14341883 0.43073866 0.11647292 0.26341587
0.03077981 0.033801753 -0.18562196 -0.039624736 0.09359211 0.92032504 0.2509206 -0.39215642
0.5332654 -0.96162915 -0.17132537 0.39126933 -0.5223054 0.029446796 -0.75431246 0.6959294
-0.5806123 0.0018976094 -0.22142358 -0.45736802 -0.23501529 -0.12389302 -0.3449458 -0.83887035
-0.069490686 1.8193061 0.1947377 -0.7447099 0.42732802 -0.37740308 -0.48245353 -0.26649478
0.5347896 -0.15575773 0.63953686 0.43082458 0.16190682 -0.7657385 0.12146718 0.3301883
0.59502333 0.119536735 -0.122497715 -0.1440276 0.9483298 0.04180896 0.85096526 0.20402068
-0.48389322 -0.4032462 -0.029406292 0.8868737 0.6825433 -0.3637529 -0.18315619 -1.0926698
-0.27783963 1.2255806 0.6536623 0.22708061 0.29408777 -0.72886574 0.14882003 -0.34715903
-0.33273408 -0.5103905 -0.3899083 -0.3095432 0.077314384 -0.7552591 -0.26964888 -0.13898006

Transformer_Blocks.0.FC_Block.1.network.3.bias f4 [8]
00000000: 609a 7d3c c750 343d 0662 383e 83b3 7b3c
00000010: 0f4b 4a3d 37c6 78bd d21b 8b3b c409 bcbc
0.0154787 0.044022348 0.18006143 0.015362623 0.049387988 -0.060735907 0.00424526 -0.022953875

Transformer_Blocks.1.att_block.0.weight f4 [8]
00000000: 4844 bb3e b7ed b53e 54d8 143f 8ac1 c83e
00000010: 3cd4 1d3f 700d f53e 3d1a d63e 6a05 e53e
0.36575532 0.35532925 0.5814259 0.3921016 0.6165197 0.47861814 0.41816893 0.44730693

Transformer_Blocks.1.att_block.0.bias f4 [8]
00000000: 8dd0 61be aa10 59be 9872 48be 5029 bfbd
00000010: d0f4 243e ff90 78be ee76 c0bc cf1b 93be
-0.22052212 -0.21197763 -0.19574964 -0.093340516 0.16109014 -0.24274062 -0.02349421 -0.28732154

Transformer_Blocks.1.att_block.1.qkv_prj.weight f4 [192, 8]
00000000: 4792 90bf 0513 3b3e 119d b8bd 292f ea3e
00000010: 310a 07bf 35a7 333f c113 66be e02d 063f
00000020: 54a8 f43e 8f40 10be 2bca d13f e303 48bf
00000030: c2f1 6bbd c638 efbd 2c05 253e ca0b 91bf
00000040: 1793 9a3e 0471 2d3e 9777 5c3e 5072 ac3f
00000050: d160 343f f162 f33f a533 693e c30d d83f
00000060: b00e 413f 01e6 ec3f af5e d83e 58ae b03f
00000070: 56d2 e53e 242f c53e 1192 673f e72b 3ebe
00000080: 7941 0cbf dd6a d4be 24b2 843d 3686 f7bd
00000090: 8252 dabf 2f30 3fbf 9b4d 96bf 2427 2a3f
000000a0: 3c0e 27be 92fe 6bbf dd74 2040 56dc 053f
000000b0: 2646 9b3e 7706 0140 09a3 b73f c2d6 413e
000000c0: 2ddc 05c0 658e 2dbf 5c91 6a3c 83c4 9d3f
000000d0: a97c 49c0 5e4b 59c0 b112 1b3f b046 1940
000000e0: 715c 8ebf 7507 60be 2ee1 9ebe 1a42 14bd
000000f0: fd3d 01bf 49d0 dfbd d079 11be 8e3c 7a3f
00000100: 2c21 5f3d dd2e 4dbd d1ec b2bb e0fb d5bd
00000110: 1012 993d 1f3b df3c 1b43 1e3d 1172 d9bc
00000120: 8471 74bf 83e1 e2be 2ec3 86bf 506b 923f
00000130: 61cd cdbd 9c32 083f 487b a1bf a644 ab3e
00000140: c105 e43f 53de 5abf 5a41 943f fb62 8d3d
00000150: 8cd8 f0be 5c14 c63e 0bea cdbf 7eae f0bf
00000160: 5b40 e3bd 6774 143f 5c37 263f 2690 89be
00000170: b55d 3fbe ee80 0fbf d5e8 a83e 2800 59be
00000180: cc51 8f3e 5a66 4c3e 6974 8b3f ad88 6dbf
00000190: 0cb4 7d3f 4817 a5be f320 38bf 3f5c d63e
000001a0: 98dc ecbe 5a6c 22be 4998 3fbf 5e63 2b3e
000001b0: 1fa2 123e cda2 c3be 0810 193f f462 3c3f
000001c0: 8c1e 82bf aff4 b3bf 9471 de3e c205 5ebf
000001d0: fdc2 28bf 4b1b 21bf 82ab df3e d2fc 52bf
000001e0: 17da 70bf 56c0 4fbf 49fc 873d 4b51 c83f
000001f0: 524b 393e 7678 3dc0 e0b9 b6bf c987 4bbf
00000200: 8dbe e2be a4cf 61c0 2b08 e93f d5b8 143e
00000210: abff 1dc0 5b9c cdbf d11d 64c0 ea01 d73f
00000220: 3d59 f63f 6d14 25bf 6d0a 6b3c 42bb 86bf
00000230: 6d9e 863f 925e dd3f 1a6f a73e 2a02 04c0
00000240: c6aa 56bf c954 7ebf d1d5 0a3f fba1 c13e
00000250: 99cc 313f d3bd 723e 9c63 553f f786 22bf
00000260: 53fd 7ebf 6583 18bf 0a7a 933f e13c a43f
00000270: 6c60 8f3c 6bc8 16bf 7b53 65be d0ee c9bf
00000280: f97e 373d 2c55 af3f 7948 c63e 7a44 073f
00000290: ee82 92be 7a08 c5be 424d 0dc0 0c00 723f
000002a0: f67a 18bf 04bf f2bf dda5 c93f e46e a33f
000002b0: 7ef3 49bf 7059 83be 0915 41bf f726 05be
000002c0: 6bdb 673f b03d fabf 9fc5 f13d 0a9a 3e3f
000002d0: 079b d03f c8ca 9b3f 045d 96be 7640 21bf
000002e0: fd56 343e 2d0f 1ebf c19f 12bf bea0 04c0
000002f0: 2c84 1fbf 80c5 78bf e761 313d 828c abbf
00000300: fafa 56bf 6355 0e40 67a9 3cbf 27c2 283f
00000310: 2d2d 023f 3d52 ffbe 0234 103f 3e88 563f
00000320: 0149 40bf 5f72 a3bf 1090 103f eee6 8a3f
00000330: c66d 4abf a4da 5cbf 19eb 55be d240 64bf
00000340: 1969 e1bf a394 c33e 73a7 4640 e8ff a7bf
00000350: e93c b2bf f9d5 a33e 2633 353e fb69 d7be
00000360: ea3e 61be aadd 80bf 2145 6d3f a582 e0be
00000370: 624a e9be 6d25 d3bf 7d94 b4bd 9afe ae3e
00000380: 0253 8ebf 7088 403e e3f2 ce3f 34ea b63f
00000390: 9cec 6fbf dd80 713f 8a7b 0e3f 6350 c9bf
000003a0: 4fbf b43e f953 323f 35b3 093e 5f9c e63f
000003b0: 7563 a23f 9e9b 403f abd6 37bf 3863 96bf
000003c0: d7b7 6abf 85c0 0b40 ea9b 2bbf 045f 7e3f
000003d0: 7954 9c3e d09f 503f 2810 d43f f26d 7dbe
000003e0: cf87 063f e088 51bf 6a81 2040 27a5 fc3e
000003f0: 4e92 bcbf faae b53f 9f5f 1a40 b113 fcbf
-1.129464 0.18268974 -0.09014333 0.45739105 -0.52749926 0.7017701 -0.22468473 0.5241375
0.47784674 -0.14087127 1.6389822 -0.7813093 -0.057603605 -0.116807505 0.16115254 -1.1331723
0.30190346 0.16937643 0.21529995 1.3472385 0.7046023 1.901457 0.22773607 1.68792
0.75413036 1.8507692 0.42259738 1.3803205 0.44887036 0.38512528 0.90457255 -0.18571435
-0.54787403 -0.4148778 0.0647929 -0.120861456 -1.7056429 -0.746829 -1.1742433 0.66465974
-0.16314024 -0.9218532 2.5071328 0.5228933 0.30326957 2.0160196 1.4346629 0.1892958
-2.0915635 -0.677954 0.014316883 1.2325596 -3.1482337 -3.395225 0.60575396 2.3949394
-1.1121961 -0.21877845 -0.31031173 -0.03619585 -0.5048521 -0.10928399 -0.14206624 0.9774865
0.054474995 -0.05009352 -0.0054603596 -0.10448432 0.07474148 0.02724987 0.038638216 -0.026543649
-0.9548571 -0.44312677 -1.0528314 1.1438999 -0.100489385 0.53202224 -1.2615747 0.33450812
1.7814256 -0.8549549 1.1582444 0.06903645 -0.47040212 0.38687408 -1.6087049 -1.8803251
-0.11096259 0.57990116 0.6492822 -0.2686779 -0.1868809 -0.56056106 0.32990137 -0.21191466
0.27992094 0.19960919 1.08949 -0.92786676 0.99102855 -0.32244325 -0.71925277 0.41867253
-0.4626205 -0.15861645 -0.74841744 0.16737124 0.14319657 -0.38210145 0.59790087 0.7358849
-1.0165572 -1.4059047 0.43446028 -0.86727536 -0.6592253 -0.6293227 0.43685538 -0.82417023
-0.9408278 -0.81152856 0.066399164 1.5649809 0.18095139 -2.9604774 -1.4275475 -0.79504067
-0.44286004 -3.5282984 1.8205618 0.14523633 -2.4687297 -1.6063341 -3.5643198 1.6797459
1.9245983 -0.6448429 0.014345747 -1.0525897 1.0517098 1.7294486 0.3270195 -2.062632
-0.8385433 -0.9934812 0.5423251 0.37818894 0.69452816 0.23705225 0.83355117 -0.6348719
-0.9960529 -0.5957549 1.1521618 1.2831079 0.017502032 -0.58899564 -0.22395127 -1.5776005
0.044798825 1.3697867 0.38727167 0.5283886 -0.28615516 -0.3848303 -2.2078404 0.9453132
-0.59562624 -1.8964543 1.5753742 1.2768216 -0.78887165 -0.25654173 -0.7542272 -0.13003145
0.9056918 -1.9550076 0.11805271 0.74453795 1.629731 1.2171259 -0.2936784 -0.62988985
0.17611308 -0.61741906 -0.57275015 -2.072311 -0.62311053 -0.9717636 0.043306258 -1.3402255
-0.8397671 2.2239616 -0.7369599 0.6592125 0.5085018 -0.4986743 0.5632936 0.8380164
-0.75111395 -1.2769278 0.5646982 1.0851724 -0.7907375 -0.8627112 -0.20890464 -0.8916141
-1.7610198 0.38199338 3.1039703 -1.3124971 -1.3924838 0.31999186 0.17695293 -0.42073044
-0.21996656 -1.0067647 0.9268361 -0.43849674 -0.45564562 -1.6495796 -0.088173844 0.3417862
-1.1119082 0.18802047 1.6167873 1.4290223 -0.9372041 0.94337255 0.55657256 -1.5727657
0.35302207 0.6965938 0.13447268 1.8016471 1.2686602 0.75237453 -0.7181193 -1.1749029
-0.9168677 2.1836255 -0.6703478 0.9936373 0.30533198 0.81493855 1.656743 -0.24748972
0.5255098 -0.8184948 2.5078988 0.4934475 -1.4732149 1.4194024 2.4120862 -1.9693509

Transformer_Blocks.1.att_block.1.out_proj.weight f4 [8, 64]
00000000: 5fe8 2cbe deb0 b73e e2cd c1be da5e aa3e
00000010: 1f28 683f 1fb0 7bbf ecab 4d3f b39f 43bf
00000020: 4760 53bb 9f54 e43e e075 313e b54a 603f
00000030: 15c6 1bbf f8f8 f8bf ef86 ef3f 987d 77bf
00000040: b7e3 d83e 0757 073f 35e2 e6bf aedf 103f
00000050: cc97 10bd 39ee 6abd f3e7 c5be b454 0dbf
00000060: c746 b03f 36b2 73bf 9cc1 07bf 1cbd d33d
00000070: 6597 73bf 9795 debd 413f d53e 76db 0bbf
00000080: c7b5 643e 339c 0c3f 8fe0 00c0 ff6b 72bf
00000090: f9c8 29be 4743 31bf 09fb 57bf f6c3 cabf
000000a0: c7f5 8e3f e85d fdbe b481 893f bbc9 383f
000000b0: d5f6 9a3e 0529 c6be 1370 99be c343 063f
000000c0: 2078 af3e 52da c9be e8ad 6f3d ecdc 2abe
000000d0: fbd8 773c c5a7 a33e 8456 44bf 7170 bf3e
000000e0: 0047 8a3f c134 543e 0092 853f f27e 85bf
000000f0: 36b0 61bf 06f3 a6bf 13b2 b23e 547a 893f
00000100: 2b51 69bf 9a37 133f 9fc4 c7bf 1855 af3e
00000110: 8120 cbbe 3708 bbbd 8591 8d3f 67da 073d
00000120: f693 9dbc 8a4d d8be 1a38 253b ab70 b53f
00000130: 86c1 a7be 57d4 9abf 73d4 293f 514b 233f
00000140: 119f 03be b725 3b3f 58c9 e1be 4c19 01bf
00000150: cedf 31bf 7561 afbe a043 3fbe e0e9 183f
00000160: 5bf4 0740 d87c b93e a02b 38bf f242 6b3f
00000170: 9e1c d83e 9c37 f03e 200b a13f 719c e03e
00000180: fff1 6abf 38ae 3f40 36ea 1740 524d a93e
00000190: 562b 53bf 40ef 2ebf c326 933f 61d5 833f
000001a0: 2710 7abd e926 9f3f 4c59 8ebf ef9c 243e
000001b0: b5f6 e7be 8dde 0e3f 895e 3a3f 06d2 a2bf
000001c0: ae1b 8d3f 7430 0ebf 883c 06bf 5c47 17be
000001d0: c6f9 123f 7207 69bd ce61 0fbf cb36 5b3f
000001e0: 22b7 a3bf eea8 99bf c594 89bf b474 8b3f
000001f0: 0037 0abf a46e 6f3f f757 1fbf 2756 0b3f
00000200: aaf8 0b3f 4629 a0be f4b4 e1be fd55 1e3d
00000210: b37d 8ebf 77f7 623f b6d3 a0be b068 223f
00000220: ca5c 293c 409e da3e f77f 1dbf 471c b4be
00000230: 688e 6e3f 5a11 d93e 02d5 1d3f aaee 653f
00000240: 83aa a4be 409a b3bd 7731 bfbf f3d5 5cbe
00000250: 4ac3 80bf 6f65 87be 53e0 88bf 6e10 c1bd
00000260: b174 8fbf f1b5 7e3f 3851 3b3e 8000 9ebe
00000270: b820 aebe 46cb 3b3e a43c 92bf 30db 37be
00000280: 8a0b ad3f 7bac e9be 60a2 bb3e f90a 563f
00000290: e3c6 993f a981 9dbf bac1 9a3e 3458 103f
000002a0: cb8a 06be 7a7e 4d3e baa6 a13c 00c5 003f
000002b0: 9d0b 12bf 9875 36bf 41a1 cdbe 37d4 3b3e
000002c0: dd92 fabd e3c8 00be 112e 6d3f 744a cd3f
000002d0: 4337 a93d 5c45 bfbf 3ed0 9fbe 1cf1 9fbf
000002e0: e1da 1b3f de8b 4d3e f966 00bf ce11 abbd
000002f0: 9a75 1cbe e18c c63e 1d33 943d 9e51 9c3f
00000300: b179 dfbf fd77 9c3a 1d4e 843e b507 6b3f
00000310: 74e3 d5be 5e0f 32bd a38d 533f 6de9 2fbf
00000320: 7494 96bc 065b c1be 71e9 053f eea7 b63e
00000330: 8514 d7be 48f1 153e 8026 4dbc 3786 b63e
00000340: 9515 5abe 73c7 42bf 831d b83e 8e34 e53e
00000350: c593 043e 8040 dbbe 17da 05bf c128 a33e
00000360: 6778 a03e 039d 75bf 1cdd 3e3e ba80 11be
00000370: 6efa abbe 1746 36be dbb9 8b3e 406d 533f
00000380: 7627 4b3e 7fef b53d 50f6 20bf 19d5 a2be
00000390: fe32 e9bf 53b3 aa3f 61d9 853d 029f 663f
000003a0: 6f20 9fbe e5d3 93bf bd55 943f 732f 5dbe
000003b0: d183 1bbf d068 d3be b0ee 94be 3f42 193f
000003c0: d1bc cbbc e505 883e 3e18 693f 271b f9bc
000003d0: f513 313f 6109 fbbe 1df1 cdbe 5c18 9fbe
000003e0: 32bd 87bf 9653 463f c51d 2d3f 40fb 2fbd
000003f0: da3b a23e 474a bc3f dd46 c43e 5622 83bf
-0.16885518 0.35877126 -0.3785239 0.3327549 0.9068622 -0.98315614 0.80340457 -0.76415557
-0.003225343 0.4459581 0.17330122 0.87613994 -0.60849124 -1.9450979 1.8713053 -0.96676016
0.42361233 0.5286717 -1.8037783 0.5659131 -0.035301015 -0.057356093 -0.38653526 -0.5520737
1.37716 -0.95193803 -0.530298 0.10338804 -0.95152885 -0.10868376 0.4164982 -0.54631746
0.22334968 0.5492584 -2.013706 -0.9469604 -0.16580571 -0.6924328 -0.84367424 -1.5841053
1.1168755 -0.49485707 1.0742707 0.72182816 0.30266443 -0.3870317 -0.29968318 0.52447146
0.34271336 -0.39424378 0.05851546 -0.16685838 0.015127416 0.31963935 -0.7669451 0.37390473
1.0802917 0.20723249 1.0435181 -1.0429366 -0.881595 -1.3042915 0.34901485 1.0740457
-0.9113948 0.57506716 -1.5606879 0.3424461 -0.39673236 -0.09132426 1.1060034 0.03316727
-0.019235592 -0.42246658 0.002521044 1.4175009 -0.32764834 -1.2096051 0.66339797 0.637868
-0.12853648 0.73104423 -0.44098926 -0.50429225 -0.69482124 -0.3425404 -0.1867814 0.59731865
2.1242893 0.3622806 -0.71941566 0.91899025 0.42209333 0.46917427 1.258152 0.43869355
-0.91775507 2.9950085 2.37367 0.33066803 -0.82488 -0.68333817 1.1496204 1.0299493
-0.06105056 1.243375 -1.1121001 0.1607549 -0.4530541 0.55808336 0.728005 -1.2720344
1.1024072 -0.55542684 -0.52436113 -0.14773315 0.57412374 -0.056891866 -0.56008613 0.8563048
-1.2790263 -1.2004678 -1.0748526 1.089499 -0.53990173 0.935282 -0.622436 0.54428333
0.54676306 -0.3128149 -0.4408337 0.038656224 -1.113211 0.8865885 -0.31411523 0.6344099
0.010337064 0.4269886 -0.61523384 -0.35177824 0.93186045 0.4239605 0.6165315 0.898173
-0.3216134 -0.08769655 -1.493697 -0.2156599 -1.0059597 -0.26444575 -1.0693458 -0.09426962
-1.1207486 0.9949637 0.18292701 -0.30859756 -0.34009337 0.18339261 -1.1424756 -0.17954707
1.3519146 -0.45639405 0.3664732 0.8361049 1.201382 -1.2305194 0.30225927 0.5638459
-0.13138883 0.20067778 0.019732822 0.503006 -0.5704897 -0.71273184 -0.4016209 0.18342672
-0.12235043 -0.12576632 0.92648417 1.6038346 0.082624935 -1.4943042 -0.31213564 -1.2495456
0.6088086 0.20072886 -0.50157124 -0.08353005 -0.15279236 0.38779357 0.072363116 1.2212408
-1.7459012 0.0011937615 0.25840846 0.91808635 -0.41775095 -0.043471687 0.82637995 -0.68715554
-0.018381335 -0.37764758 0.5230933 0.35674995 -0.42007843 0.14642823 -0.012521386 0.35649273
-0.21297295 -0.76085585 0.35960016 0.4476666 0.12946995 -0.42822647 -0.52285904 0.3186703
0.3134186 -0.95942706 0.18639034 -0.14209262 -0.335895 -0.17800175 0.27290234 0.8258858
0.19839272 0.08883571 -0.62875843 -0.31803206 -1.8218687 1.3335975 0.06535602 0.90086377
-0.31079432 -1.154904 1.1588665 -0.21600132 -0.6074801 -0.41290903 -0.29088354 0.5986671
-0.024870308 0.26566997 0.91052616 -0.030408455 0.69171077 -0.49030593 -0.40223017 -0.31073272
-1.0604613 0.7747129 0.6762355 -0.04296422 0.31686288 1.4710168 0.38335314 -1.0244853

Transformer_Blocks.1.att_block.1.out_proj.bias f4 [8]
00000000: 915d a1be ebf6 1cbe c88c 903d b831 b5bc
00000010: ab5f f23e 5a88 3cbf 694b 0640 8009 5bbf
-0.31516698 -0.15328567 0.07058102 -0.022118434 0.47338614 -0.73645556 2.0983527 -0.8556137

Transformer_Blocks.1.FC_Block.0.weight f4 [8]
00000000: 8c47 fe3e 877b e73e 2bb5 4a3f 4de6 323f
00000010: 141e 493f 7fa8 2c3f b706 353f 8bf4 123f
0.4966396 0.4521143 0.7918269 0.6988266 0.7856152 0.67444605 0.7071337 0.5740439

Transformer_Blocks.1.FC_Block.0.bias f4 [8]
00000000: 7356 263e 754d 9a3e abdf 2f3f 6f31 cc3e
00000010: efa6 163f 11df 643e 7d5c 183f a0c8 e33d
0.16243915 0.3013722 0.68700665 0.39881465 0.5884847 0.22350718 0.59516126 0.111222506
